…
[INFO] 2020-09-24 15:30:37 > {'config': None, 'data_dir': 'data/example/processed', 'save_config': 'checkpoints/example_config.json', 'save_checkpoint': 'checkpoints/example_model.pth', 'save_log': 'logs/example.log', 'device': 'cpu', 'dataset_limit': None, 'print_every': 1, 'save_every': 1, 'vocabulary_size': None, 'positional_encoding': False, 'd_model': 128, 'layers_count': 6, 'heads_count': 4, 'd_ff': 128, 'dropout_prob': 0.2, 'label_smoothing': 0.1, 'optimizer': 'Noam', 'lr': 0.001, 'clip_grads': False, 'batch_size': 64, 'epochs': 100}
[INFO] 2020-09-24 15:30:37 > Constructing dictionaries...
[INFO] 2020-09-24 15:30:37 > Source dictionary vocabulary : 482 tokens
[INFO] 2020-09-24 15:30:37 > Target dictionary vocabulary : 76 tokens
[INFO] 2020-09-24 15:30:37 > Building model...
[INFO] 2020-09-24 15:30:37 > Transformer(
  (encoder): TransformerEncoder(
    (embedding): Embedding(482, 128)
    (encoder_layers): ModuleList(
      (0): TransformerEncoderLayer(
        (self_attention_layer): Sublayer(
          (sublayer): MultiHeadAttention(
            (query_projection): Linear(in_features=128, out_features=128, bias=True)
            (key_projection): Linear(in_features=128, out_features=128, bias=True)
            (value_projection): Linear(in_features=128, out_features=128, bias=True)
            (final_projection): Linear(in_features=128, out_features=128, bias=True)
            (dropout): Dropout(p=0.2, inplace=False)
            (softmax): Softmax(dim=3)
          )
          (layer_normalization): LayerNormalization()
        )
        (pointwise_feedforward_layer): Sublayer(
          (sublayer): PointwiseFeedForwardNetwork(
            (feed_forward): Sequential(
              (0): Linear(in_features=128, out_features=128, bias=True)
              (1): Dropout(p=0.2, inplace=False)
              (2): ReLU()
              (3): Linear(in_features=128, out_features=128, bias=True)
              (4): Dropout(p=0.2, inplace=False)
            )
          )
          (layer_normalization): LayerNormalization()
        )
        (dropout): Dropout(p=0.2, inplace=False)
      )
      (1): TransformerEncoderLayer(
        (self_attention_layer): Sublayer(
          (sublayer): MultiHeadAttention(
            (query_projection): Linear(in_features=128, out_features=128, bias=True)
            (key_projection): Linear(in_features=128, out_features=128, bias=True)
            (value_projection): Linear(in_features=128, out_features=128, bias=True)
            (final_projection): Linear(in_features=128, out_features=128, bias=True)
            (dropout): Dropout(p=0.2, inplace=False)
            (softmax): Softmax(dim=3)
          )
          (layer_normalization): LayerNormalization()
        )
        (pointwise_feedforward_layer): Sublayer(
          (sublayer): PointwiseFeedForwardNetwork(
            (feed_forward): Sequential(
              (0): Linear(in_features=128, out_features=128, bias=True)
              (1): Dropout(p=0.2, inplace=False)
              (2): ReLU()
              (3): Linear(in_features=128, out_features=128, bias=True)
              (4): Dropout(p=0.2, inplace=False)
            )
          )
          (layer_normalization): LayerNormalization()
        )
        (dropout): Dropout(p=0.2, inplace=False)
      )
      (2): TransformerEncoderLayer(
        (self_attention_layer): Sublayer(
          (sublayer): MultiHeadAttention(
            (query_projection): Linear(in_features=128, out_features=128, bias=True)
            (key_projection): Linear(in_features=128, out_features=128, bias=True)
            (value_projection): Linear(in_features=128, out_features=128, bias=True)
            (final_projection): Linear(in_features=128, out_features=128, bias=True)
            (dropout): Dropout(p=0.2, inplace=False)
            (softmax): Softmax(dim=3)
          )
          (layer_normalization): LayerNormalization()
        )
        (pointwise_feedforward_layer): Sublayer(
          (sublayer): PointwiseFeedForwardNetwork(
            (feed_forward): Sequential(
              (0): Linear(in_features=128, out_features=128, bias=True)
              (1): Dropout(p=0.2, inplace=False)
              (2): ReLU()
              (3): Linear(in_features=128, out_features=128, bias=True)
              (4): Dropout(p=0.2, inplace=False)
            )
          )
          (layer_normalization): LayerNormalization()
        )
        (dropout): Dropout(p=0.2, inplace=False)
      )
      (3): TransformerEncoderLayer(
        (self_attention_layer): Sublayer(
          (sublayer): MultiHeadAttention(
            (query_projection): Linear(in_features=128, out_features=128, bias=True)
            (key_projection): Linear(in_features=128, out_features=128, bias=True)
            (value_projection): Linear(in_features=128, out_features=128, bias=True)
            (final_projection): Linear(in_features=128, out_features=128, bias=True)
            (dropout): Dropout(p=0.2, inplace=False)
            (softmax): Softmax(dim=3)
          )
          (layer_normalization): LayerNormalization()
        )
        (pointwise_feedforward_layer): Sublayer(
          (sublayer): PointwiseFeedForwardNetwork(
            (feed_forward): Sequential(
              (0): Linear(in_features=128, out_features=128, bias=True)
              (1): Dropout(p=0.2, inplace=False)
              (2): ReLU()
              (3): Linear(in_features=128, out_features=128, bias=True)
              (4): Dropout(p=0.2, inplace=False)
            )
          )
          (layer_normalization): LayerNormalization()
        )
        (dropout): Dropout(p=0.2, inplace=False)
      )
      (4): TransformerEncoderLayer(
        (self_attention_layer): Sublayer(
          (sublayer): MultiHeadAttention(
            (query_projection): Linear(in_features=128, out_features=128, bias=True)
            (key_projection): Linear(in_features=128, out_features=128, bias=True)
            (value_projection): Linear(in_features=128, out_features=128, bias=True)
            (final_projection): Linear(in_features=128, out_features=128, bias=True)
            (dropout): Dropout(p=0.2, inplace=False)
            (softmax): Softmax(dim=3)
          )
          (layer_normalization): LayerNormalization()
        )
        (pointwise_feedforward_layer): Sublayer(
          (sublayer): PointwiseFeedForwardNetwork(
            (feed_forward): Sequential(
              (0): Linear(in_features=128, out_features=128, bias=True)
              (1): Dropout(p=0.2, inplace=False)
              (2): ReLU()
              (3): Linear(in_features=128, out_features=128, bias=True)
              (4): Dropout(p=0.2, inplace=False)
            )
          )
          (layer_normalization): LayerNormalization()
        )
        (dropout): Dropout(p=0.2, inplace=False)
      )
      (5): TransformerEncoderLayer(
        (self_attention_layer): Sublayer(
          (sublayer): MultiHeadAttention(
            (query_projection): Linear(in_features=128, out_features=128, bias=True)
            (key_projection): Linear(in_features=128, out_features=128, bias=True)
            (value_projection): Linear(in_features=128, out_features=128, bias=True)
            (final_projection): Linear(in_features=128, out_features=128, bias=True)
            (dropout): Dropout(p=0.2, inplace=False)
            (softmax): Softmax(dim=3)
          )
          (layer_normalization): LayerNormalization()
        )
        (pointwise_feedforward_layer): Sublayer(
          (sublayer): PointwiseFeedForwardNetwork(
            (feed_forward): Sequential(
              (0): Linear(in_features=128, out_features=128, bias=True)
              (1): Dropout(p=0.2, inplace=False)
              (2): ReLU()
              (3): Linear(in_features=128, out_features=128, bias=True)
              (4): Dropout(p=0.2, inplace=False)
            )
          )
          (layer_normalization): LayerNormalization()
        )
        (dropout): Dropout(p=0.2, inplace=False)
      )
    )
  )
  (decoder): TransformerDecoder(
    (embedding): Embedding(76, 128)
    (decoder_layers): ModuleList(
      (0): TransformerDecoderLayer(
        (self_attention_layer): Sublayer(
          (sublayer): MultiHeadAttention(
            (query_projection): Linear(in_features=128, out_features=128, bias=True)
            (key_projection): Linear(in_features=128, out_features=128, bias=True)
            (value_projection): Linear(in_features=128, out_features=128, bias=True)
            (final_projection): Linear(in_features=128, out_features=128, bias=True)
            (dropout): Dropout(p=0.2, inplace=False)
            (softmax): Softmax(dim=3)
          )
          (layer_normalization): LayerNormalization()
        )
        (memory_attention_layer): Sublayer(
          (sublayer): MultiHeadAttention(
            (query_projection): Linear(in_features=128, out_features=128, bias=True)
            (key_projection): Linear(in_features=128, out_features=128, bias=True)
            (value_projection): Linear(in_features=128, out_features=128, bias=True)
            (final_projection): Linear(in_features=128, out_features=128, bias=True)
            (dropout): Dropout(p=0.2, inplace=False)
            (softmax): Softmax(dim=3)
          )
          (layer_normalization): LayerNormalization()
        )
        (pointwise_feedforward_layer): Sublayer(
          (sublayer): PointwiseFeedForwardNetwork(
            (feed_forward): Sequential(
              (0): Linear(in_features=128, out_features=128, bias=True)
              (1): Dropout(p=0.2, inplace=False)
              (2): ReLU()
              (3): Linear(in_features=128, out_features=128, bias=True)
              (4): Dropout(p=0.2, inplace=False)
            )
          )
          (layer_normalization): LayerNormalization()
        )
      )
      (1): TransformerDecoderLayer(
        (self_attention_layer): Sublayer(
          (sublayer): MultiHeadAttention(
            (query_projection): Linear(in_features=128, out_features=128, bias=True)
            (key_projection): Linear(in_features=128, out_features=128, bias=True)
            (value_projection): Linear(in_features=128, out_features=128, bias=True)
            (final_projection): Linear(in_features=128, out_features=128, bias=True)
            (dropout): Dropout(p=0.2, inplace=False)
            (softmax): Softmax(dim=3)
          )
          (layer_normalization): LayerNormalization()
        )
        (memory_attention_layer): Sublayer(
          (sublayer): MultiHeadAttention(
            (query_projection): Linear(in_features=128, out_features=128, bias=True)
            (key_projection): Linear(in_features=128, out_features=128, bias=True)
            (value_projection): Linear(in_features=128, out_features=128, bias=True)
            (final_projection): Linear(in_features=128, out_features=128, bias=True)
            (dropout): Dropout(p=0.2, inplace=False)
            (softmax): Softmax(dim=3)
          )
          (layer_normalization): LayerNormalization()
        )
        (pointwise_feedforward_layer): Sublayer(
          (sublayer): PointwiseFeedForwardNetwork(
            (feed_forward): Sequential(
              (0): Linear(in_features=128, out_features=128, bias=True)
              (1): Dropout(p=0.2, inplace=False)
              (2): ReLU()
              (3): Linear(in_features=128, out_features=128, bias=True)
              (4): Dropout(p=0.2, inplace=False)
            )
          )
          (layer_normalization): LayerNormalization()
        )
      )
      (2): TransformerDecoderLayer(
        (self_attention_layer): Sublayer(
          (sublayer): MultiHeadAttention(
            (query_projection): Linear(in_features=128, out_features=128, bias=True)
            (key_projection): Linear(in_features=128, out_features=128, bias=True)
            (value_projection): Linear(in_features=128, out_features=128, bias=True)
            (final_projection): Linear(in_features=128, out_features=128, bias=True)
            (dropout): Dropout(p=0.2, inplace=False)
            (softmax): Softmax(dim=3)
          )
          (layer_normalization): LayerNormalization()
        )
        (memory_attention_layer): Sublayer(
          (sublayer): MultiHeadAttention(
            (query_projection): Linear(in_features=128, out_features=128, bias=True)
            (key_projection): Linear(in_features=128, out_features=128, bias=True)
            (value_projection): Linear(in_features=128, out_features=128, bias=True)
            (final_projection): Linear(in_features=128, out_features=128, bias=True)
            (dropout): Dropout(p=0.2, inplace=False)
            (softmax): Softmax(dim=3)
          )
          (layer_normalization): LayerNormalization()
        )
        (pointwise_feedforward_layer): Sublayer(
          (sublayer): PointwiseFeedForwardNetwork(
            (feed_forward): Sequential(
              (0): Linear(in_features=128, out_features=128, bias=True)
              (1): Dropout(p=0.2, inplace=False)
              (2): ReLU()
              (3): Linear(in_features=128, out_features=128, bias=True)
              (4): Dropout(p=0.2, inplace=False)
            )
          )
          (layer_normalization): LayerNormalization()
        )
      )
      (3): TransformerDecoderLayer(
        (self_attention_layer): Sublayer(
          (sublayer): MultiHeadAttention(
            (query_projection): Linear(in_features=128, out_features=128, bias=True)
            (key_projection): Linear(in_features=128, out_features=128, bias=True)
            (value_projection): Linear(in_features=128, out_features=128, bias=True)
            (final_projection): Linear(in_features=128, out_features=128, bias=True)
            (dropout): Dropout(p=0.2, inplace=False)
            (softmax): Softmax(dim=3)
          )
          (layer_normalization): LayerNormalization()
        )
        (memory_attention_layer): Sublayer(
          (sublayer): MultiHeadAttention(
            (query_projection): Linear(in_features=128, out_features=128, bias=True)
            (key_projection): Linear(in_features=128, out_features=128, bias=True)
            (value_projection): Linear(in_features=128, out_features=128, bias=True)
            (final_projection): Linear(in_features=128, out_features=128, bias=True)
            (dropout): Dropout(p=0.2, inplace=False)
            (softmax): Softmax(dim=3)
          )
          (layer_normalization): LayerNormalization()
        )
        (pointwise_feedforward_layer): Sublayer(
          (sublayer): PointwiseFeedForwardNetwork(
            (feed_forward): Sequential(
              (0): Linear(in_features=128, out_features=128, bias=True)
              (1): Dropout(p=0.2, inplace=False)
              (2): ReLU()
              (3): Linear(in_features=128, out_features=128, bias=True)
              (4): Dropout(p=0.2, inplace=False)
            )
          )
          (layer_normalization): LayerNormalization()
        )
      )
      (4): TransformerDecoderLayer(
        (self_attention_layer): Sublayer(
          (sublayer): MultiHeadAttention(
            (query_projection): Linear(in_features=128, out_features=128, bias=True)
            (key_projection): Linear(in_features=128, out_features=128, bias=True)
            (value_projection): Linear(in_features=128, out_features=128, bias=True)
            (final_projection): Linear(in_features=128, out_features=128, bias=True)
            (dropout): Dropout(p=0.2, inplace=False)
            (softmax): Softmax(dim=3)
          )
          (layer_normalization): LayerNormalization()
        )
        (memory_attention_layer): Sublayer(
          (sublayer): MultiHeadAttention(
            (query_projection): Linear(in_features=128, out_features=128, bias=True)
            (key_projection): Linear(in_features=128, out_features=128, bias=True)
            (value_projection): Linear(in_features=128, out_features=128, bias=True)
            (final_projection): Linear(in_features=128, out_features=128, bias=True)
            (dropout): Dropout(p=0.2, inplace=False)
            (softmax): Softmax(dim=3)
          )
          (layer_normalization): LayerNormalization()
        )
        (pointwise_feedforward_layer): Sublayer(
          (sublayer): PointwiseFeedForwardNetwork(
            (feed_forward): Sequential(
              (0): Linear(in_features=128, out_features=128, bias=True)
              (1): Dropout(p=0.2, inplace=False)
              (2): ReLU()
              (3): Linear(in_features=128, out_features=128, bias=True)
              (4): Dropout(p=0.2, inplace=False)
            )
          )
          (layer_normalization): LayerNormalization()
        )
      )
      (5): TransformerDecoderLayer(
        (self_attention_layer): Sublayer(
          (sublayer): MultiHeadAttention(
            (query_projection): Linear(in_features=128, out_features=128, bias=True)
            (key_projection): Linear(in_features=128, out_features=128, bias=True)
            (value_projection): Linear(in_features=128, out_features=128, bias=True)
            (final_projection): Linear(in_features=128, out_features=128, bias=True)
            (dropout): Dropout(p=0.2, inplace=False)
            (softmax): Softmax(dim=3)
          )
          (layer_normalization): LayerNormalization()
        )
        (memory_attention_layer): Sublayer(
          (sublayer): MultiHeadAttention(
            (query_projection): Linear(in_features=128, out_features=128, bias=True)
            (key_projection): Linear(in_features=128, out_features=128, bias=True)
            (value_projection): Linear(in_features=128, out_features=128, bias=True)
            (final_projection): Linear(in_features=128, out_features=128, bias=True)
            (dropout): Dropout(p=0.2, inplace=False)
            (softmax): Softmax(dim=3)
          )
          (layer_normalization): LayerNormalization()
        )
        (pointwise_feedforward_layer): Sublayer(
          (sublayer): PointwiseFeedForwardNetwork(
            (feed_forward): Sequential(
              (0): Linear(in_features=128, out_features=128, bias=True)
              (1): Dropout(p=0.2, inplace=False)
              (2): ReLU()
              (3): Linear(in_features=128, out_features=128, bias=True)
              (4): Dropout(p=0.2, inplace=False)
            )
          )
          (layer_normalization): LayerNormalization()
        )
      )
    )
    (generator): Linear(in_features=128, out_features=76, bias=True)
  )
)
[INFO] 2020-09-24 15:30:37 > Encoder : 659200 parameters
[INFO] 2020-09-24 15:30:37 > Decoder : 1005132 parameters
[INFO] 2020-09-24 15:30:37 > Total : 1664332 parameters
[INFO] 2020-09-24 15:30:37 > Loading datasets...
[INFO] 2020-09-24 15:30:37 > Start training...
[INFO] 2020-09-24 15:30:38 > Epoch:   0 Progress: 0.0% Elapsed: 0:00:00 Examples/second: 8e+02 Train Loss: inf Val Loss: inf Train Metrics: [inf] Val Metrics: [inf] Learning rate: 6.988e-07 
…
